…
AAuE7mDOj7LgR5wqPPQHl6sOGjcAtbQgGsNZp53vh1Gw3Bc=s64","userId":"07510720842871233469"}},"colab":{"base_uri":"https://localhost:8080/","height":595}},"source":["model.compile(optimizer='adam', loss='categorical_crossentropy', metrics=['accuracy'])\n","model.summary()"],"execution_count":27,"outputs":[{"output_type":"stream","text":["Model: \"sequential_2\"\n","_________________________________________________________________\n","Layer (type)                 Output Shape              Param #   \n","=================================================================\n","conv_1 (Conv2D)              (None, 112, 112, 32)      320       \n","_________________________________________________________________\n","max_pooling2d_3 (MaxPooling2 (None, 56, 56, 32)        0         \n","_________________________________________________________________\n","sparse_1 (KW)                (None, 56, 56, 32)        0         \n","_________________________________________________________________\n","conv_2 (Conv2D)              (None, 56, 56, 32)        9248      \n","_________________________________________________________________\n","max_pooling2d_4 (MaxPooling2 (None, 28, 28, 32)        0         \n","_________________________________________________________________\n","sparse_2 (KW)                (None, 28, 28, 32)        0         \n","_________________________________________________________________\n","conv_3 (Conv2D)              (None, 26, 26, 64)        18496     \n","_________________________________________________________________\n","sparse_3 (KW)                (None, 26, 26, 64)        0         \n","_________________________________________________________________\n","conv_4 (Conv2D)              (None, 24, 24, 64)        36928     \n","_________________________________________________________________\n","sparse_4 (KW)                (None, 24, 24, 64)        0         \n","_________________________________________________________________\n","flatten_2 (Flatten)          (None, 36864)             0         \n","_________________________________________________________________\n","dense_1 (Dense)              (None, 10)                368650    \n","_________________________________________________________________\n","softmax (Activation)         (None, 10)                0         \n","=================================================================\n","Total params: 433,642\n","Trainable params: 433,642\n","Non-trainable params: 0\n","_________________________________________________________________\n"],"name":"stdout"}]},{"cell_type":"code","metadata":{"id":"JMkaGTZJU_6u","colab_type":"code","colab":{}},"source":["model.load_weights(\"/content/drive/Shared drive
…
