…
ain.Optimizer is deprecated. Please use tf.compat.v1.train.Optimizer instead.\n","\n","W0824 00:46:29.250732 139883839469440 deprecation_wrapper.py:119] From /usr/local/lib/python3.6/dist-packages/keras/backend/tensorflow_backend.py:3295: The name tf.log is deprecated. Please use tf.math.log instead.\n","\n"],"name":"stderr"},{"output_type":"stream","text":["_________________________________________________________________\n","Layer (type)                 Output Shape              Param #   \n","=================================================================\n","conv_1 (Conv2D)              (None, 112, 112, 32)      320       \n","_________________________________________________________________\n","max_pooling2d_1 (MaxPooling2 (None, 56, 56, 32)        0         \n","_________________________________________________________________\n","sparse_1 (KW)                (None, 56, 56, 32)        0         \n","_________________________________________________________________\n","conv_2 (Conv2D)              (None, 56, 56, 32)        9248      \n","_________________________________________________________________\n","max_pooling2d_2 (MaxPooling2 (None, 28, 28, 32)        0         \n","_________________________________________________________________\n","sparse_2 (KW)                (None, 28, 28, 32)        0         \n","_________________________________________________________________\n","conv_3 (Conv2D)              (None, 26, 26, 64)        18496     \n","_________________________________________________________________\n","sparse_3 (KW)                (None, 26, 26, 64)        0         \n","_________________________________________________________________\n","conv_4 (Conv2D)              (None, 24, 24, 64)        36928     \n","_________________________________________________________________\n","sparse_4 (KW)                (None, 24, 24, 64)        0         \n","_________________________________________________________________\n","flatten_1 (Flatten)          (None, 36864)             0         \n","_________________________________________________________________\n","dense_1 (Dense)              (None, 10)                368650    \n","_________________________________________________________________\n","softmax (Activation)         (None, 10)                0         \n","=================================================================\n","Total params: 433,642\n","Trainable params: 433,642\n","Non-trainable params: 0\n","_________________________________________________________________\n"],"name":"stdout"}]},{"cell_type":"code","metadata":{"id":"b3DZfJWhIUhr","colab_type":"code","outputId":"602b83b9-bf41-45cc-d12b-345bd529da2b","executionInfo":{"sta
…
