…
 Please use tf.compat.v1.train.Optimizer instead.\n","\n","W0902 15:48:12.016166 139739224369024 deprecation_wrapper.py:119] From /usr/local/lib/python3.6/dist-packages/keras/backend/tensorflow_backend.py:3576: The name tf.log is deprecated. Please use tf.math.log instead.\n","\n"],"name":"stderr"},{"output_type":"stream","text":["Model: \"sequential_1\"\n","_________________________________________________________________\n","Layer (type)                 Output Shape              Param #   \n","=================================================================\n","conv_1 (Conv2D)              (None, 32, 32, 32)        896       \n","_________________________________________________________________\n","conv_2 (Conv2D)              (None, 30, 30, 32)        9248      \n","_________________________________________________________________\n","max_pooling2d_1 (MaxPooling2 (None, 15, 15, 32)        0         \n","_________________________________________________________________\n","conv_3 (Conv2D)              (None, 15, 15, 64)        18496     \n","_________________________________________________________________\n","conv_4 (Conv2D)              (None, 13, 13, 64)        36928     \n","_________________________________________________________________\n","max_pooling2d_2 (MaxPooling2 (None, 6, 6, 64)          0         \n","_________________________________________________________________\n","global_average_pooling2d_1 ( (None, 64)                0         \n","_________________________________________________________________\n","dense_2 (Dense)              (None, 4)                 260       \n","_________________________________________________________________\n","softmax (Activation)         (None, 4)                 0         \n","=================================================================\n","Total params: 65,828\n","Trainable params: 65,828\n","Non-trainable params: 0\n","_________________________________________________________________\n"],"name":"stdout"}]},{"cell_type":"code","metadata":{"id":"b3DZfJWhIUhr","colab_type":"code","outputId":"5fd26f39-87e6-4814-9af3-479463a5da24","executionInfo":{"statu
…
